iosApp/chatbot_model.tflite (tflite, 83012 bytes, 6 tensors)

arith.constant f4 [9, 64]
000000 64 14 b5 bd c0 38 9a be 97 63 24 be 44 44 9d 3e
       -0.0884178 -0.30121422 -0.16053616 0.30716145
000010 32 ea df 3d 65 7c 84 bd c1 88 8f 3e 51 96 a7 bd
       0.10933341 -0.06469039 0.28034022 -0.081829675
000020 a9 b9 c4 3e 6a 19 c3 be 5a 2c 80 be e8 d2 66 bd
       0.38422897 -0.38105327 -0.25033838 -0.05635348
000030 53 a6 1b 3f 3b b4 6c be 90 b6 8c 3d 4d 32 ec 3e
       0.60800666 -0.23115627 0.068707585 0.46132126
000040 c5 7a 9e bd 21 9b 03 3e 23 fe ac 3d d1 7e 77 3e
       -0.0773826 0.12852146 0.0844691 0.2416947
000050 e0 bd 57 3b 2e 48 b9 3d 7b 42 34 3e a6 47 1b be
       0.003291957 0.0904697 0.17603485 -0.1516405
000060 17 fc b2 3e 4c 00 1b be a4 40 7c 3d 82 e8 12 3f
       0.34957954 -0.15136832 0.061585084 0.5738603
000070 11 81 f2 bd dc 1f ce 3d 91 68 c0 be ae 6c f4 3e
       -0.11841024 0.100646704 -0.37579778 0.47739166
000080 1c c5 03 be 21 0c 80 be b1 7f be 3e 27 53 8e be
       -0.1286816 -0.25009254 0.37206796 -0.27797815
000090 6c 6f e6 3e 6f ab bf be 0b 0e dc 3c 09 c5 02 3f
       0.45006883 -0.3743548 0.026862165 0.510819
0000a0 11 46 2d be 02 84 02 bf 06 cd c1 be ef 54 83 be
       -0.1692126 -0.5098268 -0.37851733 -0.25650737
0000b0 13 c2 eb be d2 36 cd 3e 0f 2d 20 3f 74 2e a5 bc
       -0.46046504 0.40080887 0.62568754 -0.020163752
0000c0 5a 59 81 be 81 72 90 be 1e c6 de 3e 2e 1a 38 be
       -0.25263482 -0.2821236 0.43510526 -0.17978737
0000d0 88 8d fe 3e dd 96 a8 bd 96 32 f9 be 4e 16 ce be
       0.49717355 -0.082319 -0.48671407 -0.40251392
0000e0 2c 22 eb 3e d4 e3 74 3d 6e a7 a8 3d e7 ab 9e be
       0.4592451 0.059787586 0.0823506 -0.30990526
0000f0 a8 2e f5 bc a6 eb ac bd 16 32 22 3f 69 ac fa be
       -0.029929474 -0.08443384 0.63357675 -0.48959664
000100 63 2b 86 be 55 56 8f be 7a af 54 3e bc 18 0b be
       -0.26204976 -0.27995554 0.20770064 -0.13583654
000110 ce bb 93 3e b2 38 b1 3e 1e ea d9 bd 7a 58 d2 be
       0.2885422 0.34613568 -0.106403574 -0.41083127
000120 2f f8 2b be 52 9a 20 3f d6 80 93 bd 81 e3 d9 3e
       -0.16793893 0.62735474 -0.07202308 0.42556384
000130 46 0f 07 bf 83 2a 51 3e 8d 9a 99 be a9 74 80 be
       -0.5275768 0.20426373 -0.30000725 -0.25089005
000140 69 2a 22 3f 15 e4 ed 3e b0 21 cd be d5 0c b3 3e
       0.6334596 0.46463075 -0.40064764 0.34970728
000150 cd ad ca bc 69 42 60 be be 38 89 be 5d c7 92 be
       -0.024741078 -0.21900333 -0.26801103 -0.28667727
000160 b0 d7 2e 3d 09 69 1c 3f a1 f7 22 3f e5 09 97 b9
       0.042686164 0.6109777 0.636591 -0.00028808336
000170 51 9d ab 3e fc fb c8 be 0f 22 eb ba d2 a1 e4 3e
       0.3351846 -0.3925475 -0.0017939227 0.4465471
000180 9f 10 40 3f 85 3f df be 27 c9 db be a3 bd ed be
       0.7502536 -0.4360315 -0.42926905 -0.46433744
000190 24 32 d8 be f2 57 8b be 28 f4 ec 3c b8 d3 12 3e
       -0.42225754 -0.27215534 0.028925017 0.14338577
0001a0 af 7f 63 bd ef b7 5f be 60 66 d8 be 9d 9c 03 3d
       -0.05554169 -0.21847509 -0.42265606 0.03213178
0001b0 63 53 dc be ec 86 d6 bd ce 7f cb 3e 58 5a 91 bd
       -0.4303237 -0.10474953 0.39745945 -0.0709731
0001c0 95 b7 24 bf 29 e6 60 3e 0b c6 34 be 51 c8 7a bd
       -0.64342624 0.21962799 -0.17653672 -0.061226193
0001d0 52 ba 6e 3e bb cb 80 3e ce a1 b4 3e 4d 1f 96 3e
       0.23313263 0.25155434 0.35279697 0.29320756
0001e0 89 4c c0 3d 71 95 b4 bd 73 8c 3c 3d de fb 1d 3f
       0.09389598 -0.08817566 0.04603238 0.61712444
0001f0 04 b0 e0 3c 91 3c d2 3e 70 38 60 be e5 a9 89 3e
       0.02742768 0.41061834 -0.21896529 0.26887432
000200 0f 6d b3 be 63 08 9a be d1 f6 93 3e 75 45 3a 3d
       -0.35044143 -0.30084524 0.28899243 0.045476396
000210 7e 95 05 bf 85 ca d6 3d 1b bd 64 3e 1d 34 31 be
       -0.5218123 0.10487846 0.22337763 -0.17305036
000220 85 d9 bd 3e f7 ce 02 3f 35 16 dd 3e 4a a3 d9 3e
       0.37080017 0.51097053 0.43181005 0.42507392
000230 05 5c 5c be fc c9 33 3e b7 bc e0 bd 08 06 34 3e
       -0.21519478 0.1755752 -0.109734945 0.17580426
000240 f7 ff 85 3e c6 7f ce bd 42 41 19 3f ea 1b de 3e
       0.26171848 -0.100829646 0.598652 0.43380672
000250 81 38 04 bf f0 40 55 be ed 59 70 be c2 a0 c3 3d
       -0.5164872 -0.20825553 -0.23471804 0.095521465
000260 b2 eb 54 be 55 2e ab bd 7d ec a7 be 69 fd f5 3e
       -0.20793036 -0.083584465 -0.32797614 0.480449
000270 ba 3b 0b be 17 79 98 3c 43 41 8a be 05 b2 bb 3d
       -0.13597003 0.018612428 -0.27002916 0.09164814
000280 c3 38 01 3f d0 5a a8 3d f7 b9 5f be 6b 40 b8 be
       0.50477237 0.08220446 -0.21848284 -0.35986647
000290 bd 73 ce be e2 10 5e be 46 0a 1b 3f 85 b7 52 be
       -0.40322676 -0.21686128 0.6056255 -0.2057782
0002a0 5f fa bb be cd 0c a5 be 44 00 aa 3e a7 ca bd 3e
       -0.36714455 -0.3223633 0.33203328 0.37068674
0002b0 af 11 ae 3e 7e fa b0 be 11 98 00 bd d4 2f d4 bd
       0.33997867 -0.3456611 -0.03139502 -0.10360685
0002c0 ab 61 39 be 02 a6 33 3f 49 90 5c be db 0e a5 3d
       -0.18103664 0.7017518 -0.21539415 0.08059474
0002d0 48 1d a8 be 41 1b a7 be bc 62 87 be 30 fc dc 3e
       -0.3283484 -0.3263798 -0.26442516 0.43161154
0002e0 99 9a 91 be 92 b8 66 bd 71 8b 22 3e 29 39 e6 be
       -0.2843826 -0.056328364 0.15873505 -0.44965485
0002f0 0a e7 35 be f6 fe 03 3f 4a b8 12 bd b8 f6 04 bf
       -0.17763916 0.51560915 -0.035820283 -0.5193896
000300 78 6e db be d2 13 a2 3b 80 de a2 3e 60 31 02 3f
       -0.42857718 0.0049462104 0.3181038 0.5085659
000310 01 50 a8 be a4 e0 31 bd 60 bb 7c 3e 8e 45 fc be
       -0.32873538 -0.043427125 0.24680853 -0.49271816
000320 8d 61 91 be 35 1a 43 be 74 55 8d 3e 4d 86 de 3e
       -0.28394738 -0.19052966 0.27604258 0.43461838
000330 db 03 2b be ad f5 39 be 0e 57 e5 bd e9 22 3d bc
       -0.1670069 -0.18160124 -0.11198245 -0.011543968
000340 fd e1 eb bd 17 8b e7 be 6c 92 f3 bd 09 87 b1 be
       -0.11517713 -0.45223305 -0.11893162 -0.34673336
000350 40 f4 04 3f ba 12 45 3f 73 c0 0d bf ae e4 ac 3e
       0.51935196 0.769817 -0.5537178 0.3376822
000360 78 97 93 be c2 cc 84 be 58 2c 2e 3f 55 da 84 be
       -0.288265 -0.25937468 0.68036413 -0.25947824
000370 25 93 aa be 93 8a c3 be 0d 36 99 bd e7 ad 16 be
       -0.33315387 -0.3819166 -0.074810125 -0.14714776
000380 48 fd ca be a8 f4 00 bf 4b 63 03 bf f6 01 01 3e
       -0.39646363 -0.50373316 -0.51323384 0.12598404
000390 d0 5a 14 3e 33 ca d3 be 0b 50 34 be 0a ac ce 3b
       0.14487767 -0.41365203 -0.17608659 0.0063071297
0003a0 51 03 93 be fa 91 0c 3f 7d 85 9d 3e 91 a1 d2 3e
       -0.28713468 0.5491024 0.30765906 0.4113889
0003b0 60 2b b4 be 92 bb 9d be f9 c5 ce 3e e8 d0 8f 3e
       -0.35189342 -0.30807167 0.40385416 0.2808907
0003c0 bc 19 ef 3e 1f a5 21 bf b9 27 97 be 83 f0 28 3e
       0.4669932 -0.6314258 -0.29522493 0.16497998
0003d0 36 4f dc 3e b3 4c a7 bd ee 88 6d 3e 0b fd 7a 3e
       0.43029183 -0.08168926 0.23196766 0.2451059
0003e0 cf 16 a1 3e eb f5 90 3e 41 8f 25 3e 4c 69 c9 3e
       0.31462714 0.2831262 0.16167928 0.39338148
0003f0 5f f5 ac be 59 28 b7 be 93 63 3a be 05 b2 aa 3e
       -0.33780953 -0.3577297 -0.18202047 0.33338943

arith.constant1 f4 [64, 128]
000000 d2 42 56 bd 0c 4d b6 bd 8e ca bb bd 04 61 17 3e
       -0.05230982 -0.08901414 -0.091694936 0.14783102
000010 cf 29 aa 3d c8 60 28 3d 11 a5 c8 3d fd bb 96 3c
       0.083087556 0.041107923 0.09797109 0.018400187
000020 23 18 70 bd df 0e be 3e 03 97 ab 3c c0 19 03 3e
       -0.05861677 0.3712072 0.020946031 0.12802792
000030 11 c4 de bd 37 5a bb 3d 7f fd 22 be d1 1b ec 3d
       -0.108772404 0.091480665 -0.15917014 0.11528743
000040 89 3f c7 3d 92 c2 06 be e9 bb 7c 3d b9 54 aa 3d
       0.09728915 -0.1316016 0.061702643 0.08316941
000050 8e 7f 16 be e6 f1 ad bc 58 5a e6 bd 98 64 db 3d
       -0.14697096 -0.02123351 -0.112477005 0.10712546
000060 4e 54 ce 3c c4 05 39 bd 47 82 88 ba 5b 29 0e 3e
       0.025186684 -0.045171514 -0.0010414802 0.13882963
000070 21 16 17 3e f1 d4 26 3e 30 d4 ba bd 87 21 30 3e
       0.14754535 0.16292168 -0.09122503 0.1720029
000080 e3 de 58 3d 52 d4 f9 3d e4 ee 63 be 3c d8 04 3e
       0.052946936 0.121987 -0.22259098 0.12973112
000090 ea b1 77 3e 12 a0 42 be b5 ee bb 3c ba df 04 be
       0.24188963 -0.19006374 0.022940973 -0.1297597
0000a0 a6 9c 12 3e 2c fd e3 bd af fe fc 3d e4 af 1b be
       0.14317569 -0.11132273 0.123532645 -0.15203816
0000b0 b5 c2 67 3e 35 8f d0 3d d1 e3 26 3e 89 26 08 3d
       0.22632869 0.101835646 0.16297843 0.033239875
0000c0 66 b3 1f be ed 66 9b bd 5a 49 8e 3d 43 55 87 3c
       -0.15595779 -0.07587991 0.069475845 0.016520148
0000d0 ab d1 b6 3d 25 d1 0a be 6d 28 ba bd a9 a7 78 3e
       0.0892671 -0.13556345 -0.09089742 0.24282707
0000e0 91 34 28 be 30 50 f8 3c 40 76 0e 3d d6 e2 63 be
       -0.16426302 0.030311674 0.03478074 -0.222545
0000f0 c2 4a 1d be 50 48 29 be d1 3f be 3e 2c 5e 0b 3e
       -0.15360549 -0.16531491 0.37158063 0.13610142
000100 cb f9 56 3c ec 66 4f be 85 66 a9 3d 31 a3 3c 3d
       0.013121079 -0.20254105 0.08271507 0.04605407
000110 79 5f 2d be 8d a5 9a bd e2 82 b7 bd a5 41 10 3e
       -0.16930951 -0.075511076 -0.08960511 0.14087541
000120 45 c7 e3 3d d7 f7 54 3e b0 23 af 3d 22 a2 3f be
       0.11121992 0.20797668 0.08551729 -0.18714193
000130 70 96 5f bc 49 57 50 3d 31 16 5a bd 6a 7e 9b 3d
       -0.013646707 0.05086449 -0.05324382 0.07592471
000140 0c 53 f5 bd d6 b5 4f bd cb 19 81 3e 81 9f 26 3d
       -0.119787306 -0.05071052 0.2521499 0.04067946
000150 13 01 11 bd f2 06 f3 bd 85 97 8c bd dc 42 6d bc
       -0.035401415 -0.11866559 -0.068648376 -0.014481273
000160 af 1b 98 3d ad f7 12 bd 83 03 2a 3e 6a ae d7 3d
       0.07427155 -0.035880733 0.16602902 0.10531314
000170 ed 20 6a bd 96 29 69 3e ff ba 5a be 94 39 0a be
       -0.057160307 0.2276977 -0.21360396 -0.13498527
000180 bd 8b f2 bc 6c 58 ec 3a 6c 99 e4 bc ce c1 3e 3e
       -0.029607648 0.0018031723 -0.027905189 0.18628618
000190 39 e0 54 bd 94 12 82 bd 49 b9 e0 bd 61 15 14 bd
       -0.051971648 -0.063512 -0.1097284 -0.0361532
0001a0 ff a1 11 be 9c bd ee 3c 59 e4 02 3d c6 ce 00 3e
       -0.14221953 0.029143147 0.03195605 0.12578878
0001b0 18 78 0f bd 89 78 3d 3d 31 c4 f2 3c 2f a8 14 3e
       -0.03502664 0.04625753 0.029634567 0.14517282
0001c0 e2 83 06 be af dc 28 3e 4c ad 35 be d0 15 5a be
       -0.13136247 0.16490434 -0.17741889 -0.21297383
0001d0 b8 36 bc 3d 3f d8 89 3d 8d fc 5c 3d 51 8a 86 3d
       0.09190124 0.06730699 0.05395179 0.065693505
0001e0 42 6f 03 3d 78 db 8b 3d f7 4a 03 3d c4 15 60 3e
       0.032088526 0.0682897 0.032053914 0.21883303
0001f0 27 47 36 be 8c 28 b6 bc b6 8f fa bd 19 9c 53 3e
       -0.1780058 -0.022236131 -0.12234442 0.20665015
000200 09 c2 80 be a8 71 10 3e ae 8d f3 3d a8 f9 03 be
       -0.25148037 0.14105856 0.11892258 -0.12888205
000210 4e 37 c6 bc a3 41 d9 bd 16 d1 2e 3c 09 e5 51 be
       -0.024196293 -0.10608222 0.010669967 -0.20497526
000220 8d 53 9e 3d f9 01 e2 3c f6 a1 09 3e 25 20 d4 bd
       0.0773078 0.027588831 0.1344069 -0.103576936
000230 c6 67 6f bd e6 ae 0b 3c 15 03 db bd 5f 56 18 3d
       -0.058448575 0.008525586 -0.10693947 0.037191745
000240 a5 08 80 3e 28 89 c3 bc c3 72 01 bc 47 33 17 3e
       0.25006595 -0.023869112 -0.0079008965 0.14765655
000250 36 46 cb bd f0 eb ee 3d 30 87 0a be 49 b0 ba 3d
       -0.09925501 0.11666095 -0.13528132 0.09115655
000260 7f f1 f2 ba 37 b1 ad 3c f8 57 05 3b 6a 48 6a be
       -0.0018535106 0.021202667 0.0020346623 -0.22879186
000270 6d e1 53 bd 35 35 46 3e 46 d4 6c 3c 0a 38 81 3c
       -0.051728655 0.19356234 0.014454907 0.015773792
000280 24 20 e6 3c 0b cf 86 bd 09 dc 16 ba 42 67 a3 3d
       0.028091498 -0.06582459 -0.00057548337 0.07978679
000290 92 79 c3 3d 9e e4 20 bd 2b c9 24 be 24 bd d7 bc
       0.09544672 -0.039280526 -0.16092364 -0.026335306
0002a0 13 ae 9b bd a4 ca 32 3d 25 1b 00 bd 54 a7 e7 3d
       -0.076015614 0.043650284 -0.031275887 0.11311212
0002b0 be 14 a0 3d 8e 35 34 3c cb 0a cc 3c 15 50 70 be
       0.07816456 0.010999097 0.02490749 -0.23468049
0002c0 5f d1 e8 3d e1 da 98 3c 06 3e 21 be 55 db 24 3d
       0.11368059 0.018659057 -0.15746316 0.040248234
0002d0 3e 17 64 be 10 3f 32 bd 0c d0 db 3d 6a 69 6e be
       -0.22274491 -0.043517172 0.10733041 -0.232824
0002e0 27 b5 35 be 49 d7 60 be e4 a7 98 bd 0a fc 83 bd
       -0.17744885 -0.21957125 -0.074538976 -0.06444557
0002f0 47 be d6 bc 38 31 b3 3d 99 7e dd 3d 33 67 d9 bd
       -0.026213778 0.08749622 0.10815162 -0.10615387
000300 b7 ba 83 bd ae 48 b1 bd ad 29 92 3e d0 56 83 bc
       -0.064320974 -0.08656441 0.2854742 -0.016032606
000310 b6 de f8 bd a1 7e a7 bc cb 70 01 3d bb 14 33 3d
       -0.12151854 -0.020446124 0.03160171 0.043720942
000320 62 3b 53 3e 13 45 27 3c dc 56 e8 bd 5a e2 06 3c
       0.20628121 0.01020934 -0.11344692 0.008232677
000330 0a 8e 4c bd de a1 8e 3d f6 df a2 3e fe 3d a2 be
       -0.049940147 0.069644675 0.31811494 -0.3168792
000340 20 1b f7 3d 56 de af 3d 40 c3 a0 bd 72 f1 0f be
       0.120657206 0.08587329 -0.07849741 -0.14056948
000350 ea ac 8f bd 48 c9 c8 3d b7 d9 4b be bd ce cf bc
       -0.070154026 0.09804016 -0.1990727 -0.025367135
000360 2d ac 12 3d f7 31 93 bc 20 a7 12 be 03 f5 b0 3d
       0.03580873 -0.017968161 -0.14321566 0.08640482
000370 ee 97 35 3d cb 06 10 be bd da 2f bd 3c 87 ae bc
       0.044334345 -0.14065091 -0.042933214 -0.02130472
000380 47 20 de 3d cb 50 da 3d 50 d5 46 3c b5 42 6a 3d
       0.10846 0.10659941 0.012135819 0.057192523
000390 57 e7 29 be ce 97 4c be e2 46 f0 3d a8 6c 04 3e
       -0.16592155 -0.19979784 0.1173227 0.12932074
0003a0 56 8f 9d 3e ee 5c a2 3e 11 f4 d5 bd 44 63 06 be
       0.3077342 0.31711525 -0.104469426 -0.13123804
0003b0 29 aa 69 3e 2d f4 8d 3e 61 30 8e bc e3 ac 7e bd
       0.22818817 0.27725354 -0.017357053 -0.062176596
0003c0 b5 87 f2 3b a0 84 44 bd 6e fd dd bb a5 14 15 3c
       0.0074014314 -0.047978044 -0.006774596 0.00909916
0003d0 dc f0 75 3d 8f 7f 89 3e ea 4f 4b 3d 25 14 ae 3d
       0.060044155 0.26855132 0.04963676 0.08499936
0003e0 5f 27 1a 3d ac c7 a5 3d 1a 6a 2c 3e e4 7e 43 bd
       0.037635203 0.08094725 0.1683735 -0.047728434
0003f0 f5 21 11 bc 1f a2 96 3e 98 bf ab bc 4d 00 50 3e
       -0.008858194 0.29420564 -0.020965382 0.20312615

arith.constant2 f4 [9]
000000 ad 9c e4 be 54 c4 8c be 21 68 89 be f5 08 80 3e
       -0.44650784 -0.27493536 -0.26837257 0.25006834
000010 9f 25 4c 3f 66 80 38 be 5a a8 c1 be 68 e3 99 3e
       0.79744905 -0.1801773 -0.37823755 0.3005631
000020 52 f4 4c 3e
       0.20015076

sequential_1/dense_1_2/Add/ReadVariableOp f4 [64]
000000 1e 03 0c bc 42 a3 92 3c 60 0d 9f 3d 47 22 4a 3e
       -0.008545665 0.017900113 0.07766223 0.19739638
000010 03 08 eb 3d 85 ec 81 3d 34 5a 05 3d dc d4 4c bd
       0.114761375 0.06343941 0.032556728 -0.050007686
000020 b8 b5 18 be 68 38 e5 3d 59 c2 54 3d 99 06 68 bb
       -0.1491307 0.11192399 0.051943157 -0.0035404323
000030 ab 73 45 bd b7 88 83 3d 9d 09 29 bd 44 41 dc bd
       -0.048206013 0.06422561 -0.041268934 -0.10754636
000040 f0 31 6e bd 95 2e 41 bd 33 25 ce 3d 44 af 82 bd
       -0.058153093 -0.047163565 0.10065689 -0.063810855
000050 6e b2 64 3e 29 e1 d3 3d b2 bc 4a 3e c2 82 fc 3c
       0.2233369 0.1034568 0.19798544 0.030824069
000060 09 de c7 3d 18 f7 06 be c4 91 90 3e d4 28 b6 bd
       0.09759147 -0.13180196 0.2823621 -0.08894506
000070 9c c0 b4 bd 88 d9 33 3d 76 fa 69 3d 05 af eb bd
       -0.088258 0.043908626 0.057123624 -0.11507992
000080 6b 3f 9d 3c c3 3f 94 3e 8c 52 b9 bc 05 dc 46 3e
       0.01919528 0.28954896 -0.02262237 0.19419868
000090 b3 b7 4e 3e 93 ef 32 3e ef b1 89 bd 3b 4f cf bd
       0.20187263 0.17474203 -0.06723391 -0.10122534
0000a0 ad e9 ae bd cd 6c a2 3e 08 51 cf 3d 92 20 2c 3e
       -0.08540664 0.31723633 0.10122877 0.168093
0000b0 a7 21 96 bd b6 f1 8f 3d 48 0d 78 bd 6d be 27 3e
       -0.073306374 0.070285246 -0.06055954 0.16381235
0000c0 a8 19 87 3e 85 61 d7 3c 9c eb 06 be 7e 53 aa 3e
       0.26386762 0.026291618 -0.13175815 0.33266824
0000d0 34 83 5e 3e 21 3e 8e 3c a7 e4 36 3e 23 42 83 bb
       0.21729738 0.01736361 0.17860661 -0.004005687
0000e0 6d 3b 0e 3d b8 88 21 3e c9 77 22 bd be 8a 3f 3e
       0.03472464 0.1577481 -0.039665017 0.1870527
0000f0 06 ba 21 bc 20 f4 4e bd 04 89 40 3e d5 79 af 3e
       -0.009871012 -0.050525784 0.18802267 0.34272638

sequential_1/dense_1/Add/ReadVariableOp f4 [128]
000000 00 9d 01 3c 6b 3d 30 bd 72 08 a4 3d 66 49 72 3d
       0.007910967 -0.043027323 0.08009423 0.05915203
000010 da 45 ac 3d 83 14 08 bd 03 b3 26 3d 36 78 ff bd
       0.08411761 -0.033222686 0.040698063 -0.124741
000020 d2 39 c1 bc bf cf c9 3c 32 29 0d be 35 b0 dc bd
       -0.023587141 0.024635194 -0.13785246 -0.10775796
000030 0f f1 fa 3c 37 f1 6b 3d a1 a6 c2 3d ad 5b 62 bc
       0.030632524 0.057603087 0.09504438 -0.0138158025
000040 81 69 d7 3d 23 79 86 bd 6e 6b 12 3d 60 a9 ff 3d
       0.1051817 -0.06566074 0.035746984 0.124834776
000050 db 1f a9 bc 56 85 35 3d b2 38 73 3d 52 7d fd bc
       -0.020645073 0.044316612 0.05938024 -0.030943546
000060 fd 91 02 3e 24 46 ba bd 5a 42 ef 3d 52 fd 50 3d
       0.12751003 -0.090954095 0.116825774 0.051022835
000070 c7 a1 21 bb a5 05 a0 3d a7 f6 9a 3e 0c 98 1c bd
       -0.0024663077 0.078135766 0.30266306 -0.03823094
000080 98 11 a8 bd 14 4d 2a be bb ce 10 bd 2c 48 a4 3d
       -0.08206481 -0.16630965 -0.035353404 0.08021578
000090 4b 2a 91 3d 9a b7 1f 3e 21 b0 a9 3d 3e 38 2e 3e
       0.07088145 0.15597382 0.08285547 0.17013642
0000a0 ed c2 3a 3c 01 4c c9 bd 36 62 23 bd 1b e3 1a 3e
       0.011399013 -0.0982895 -0.039888583 0.15125696
0000b0 74 b1 00 3e 34 99 20 3e b6 79 97 3d bb a9 b8 3d
       0.12567693 0.15683442 0.073962614 0.090167485
0000c0 36 30 0b 3e a0 15 ac 3d bc 7d e5 b9 d9 69 e8 3d
       0.1359261 0.08402562 -0.00043771963 0.11348314
0000d0 eb 83 a0 3c 9e b2 30 bd f2 51 e0 3d ea be 1c 3b
       0.019594153 -0.043139093 0.1095313 0.0023917505
0000e0 8e f4 b7 bd 07 69 42 3e ea 20 0d 3e dc ea 07 3e
       -0.08982192 0.18985377 0.13782087 0.13273185
0000f0 8b 2f 91 3c 6f 96 14 bd 67 b1 82 3d 7c 26 c3 bd
       0.017722866 -0.036276277 0.06381493 -0.09528825
000100 b2 48 7d bd 8f cb 0d 3e be 3b 32 3e d5 be fd 3c
       -0.061836906 0.13847183 0.17405602 0.030974785
000110 ef 54 cc 3d 16 5a ae 3d 63 8a d5 bd ed 66 d5 3d
       0.09977137 0.08513276 -0.10426786 0.10420022
000120 21 82 1c 3e cf 97 1b 3d c8 05 28 3c 1c 34 4a 3e
       0.15284015 0.037986573 0.010255285 0.1974644
000130 25 47 bd 3d d3 dd 04 be a4 b9 20 3e e4 90 d5 3d
       0.09242085 -0.12975244 0.15695816 0.10428026
000140 ce 63 8a 3e 4d f0 ae bc ab 7a d1 bc 53 ad 1a bc
       0.2702927 -0.021354819 -0.025571188 -0.009440738
000150 ee 53 dc 3b 71 c3 c0 3d b1 d2 da bd 99 5a 36 be
       0.0067238724 0.094122775 -0.106847174 -0.17807998
000160 9d df 62 3d e3 7a 4a 3d 58 e1 08 3d 43 89 69 bd
       0.055389035 0.0494336 0.03341803 -0.05701567
000170 3a 8b d2 b9 1c f5 2b 3d 6b cf 39 3c db a7 3a bd
       -0.00040158053 0.0419818 0.011340956 -0.045570236
000180 0a 5c 84 3d 5e 28 bd bd 90 b8 6f 3d 08 a1 0f 3e
       0.064628676 -0.09236215 0.058525622 0.14026272
000190 95 73 9c 3d c5 12 e9 3c 89 ff 1f 3e f2 be 53 3e
       0.07639233 0.028451333 0.15624823 0.20678309
0001a0 6b 13 33 3e 6e a5 47 3d cd 38 81 3d 7d 05 53 3e
       0.17487876 0.04874175 0.06309662 0.20607562
0001b0 c9 51 88 3e 63 e7 91 3e 78 12 07 3c e5 57 2b bd
       0.26624897 0.28496847 0.008244149 -0.04183187
0001c0 63 97 93 3d 95 64 1a 3e 34 30 27 3e 20 c3 c0 3d
       0.07206609 0.15077431 0.16326982 0.09412217
0001d0 44 ee 03 bc cf ab ce 3d c9 be 48 3d 0f 39 ae 3d
       -0.008052412 0.10091364 0.049010072 0.08506977
0001e0 f2 52 6c be c6 a4 03 3e db 9c 4d 3d 27 2b ca 3c
       -0.23078516 0.12855825 0.050198417 0.02467878
0001f0 b0 eb 29 3e c9 c6 3c 3e ab d5 07 3e d9 bc 2e 3e
       0.16593814 0.18435206 0.13265102 0.17064227

sequential_1/dense_1/MatMul f4 [128, 88]
000000 f7 aa 95 3e 70 8d 19 3e f8 ff 1c 3e 38 a7 ce 3d
       0.29231998 0.1499536 0.1533202 0.10090488
000010 f1 8f 96 bd 1a bf bb 3c 5e 9b f5 3a 99 d4 43 bd
       -0.073516734 0.022918273 0.001873832 -0.04781017
000020 77 ee 39 be 73 e7 b5 bd 07 bd 66 3e ab 91 5f be
       -0.18157373 -0.08882036 0.22533046 -0.21832912
000030 db 1a 80 bd 3b c3 ad bb 40 6a 66 bd 83 f2 b1 3d
       -0.06255122 -0.0053028143 -0.05625367 0.086888336
000040 52 96 d6 3d 74 13 2a bd e6 12 18 bd d5 69 80 be
       0.1047789 -0.04152246 -0.037127398 -0.25080743
000050 74 11 69 3d 34 08 25 3d d0 76 50 bd a6 f5 00 be
       0.05690141 0.040291026 -0.05089456 -0.12593707
000060 8c 0b 2a 3e 56 db 18 bd 94 cd ba b9 36 29 79 bd
       0.16605967 -0.03731855 -0.00035629852 -0.060830317
000070 61 0b d9 3b c9 cc 1f 3e 7c 5e fe 3d 6f cc de bd
       0.006623671 0.15605463 0.12420365 -0.10878836
000080 84 aa 2a bd 56 ae 19 3e 69 68 68 3b 88 e8 1c be
       -0.041666523 0.1500791 0.0035462624 -0.15323079
000090 fa cd 26 be 72 42 80 3d 64 4b 7e bd 60 c8 87 be
       -0.16289511 0.062626734 -0.062083617 -0.26520061
0000a0 23 b0 55 be b1 86 1c 3d 29 4d 14 be e3 13 10 be
       -0.20867972 0.03821439 -0.1448256 -0.14070086
0000b0 0c 16 dd 3c 46 de d1 bc ab a7 74 be ec 64 45 bd
       0.026988052 -0.025618684 -0.23892085 -0.04819195
0000c0 b5 ee 2e 3e 50 a6 14 be 47 4a ec 3d 63 43 ae 3c
       0.17083247 -0.14516568 0.11537605 0.021272367
0000d0 02 a8 61 bd e0 8b 64 3e 1a fd f8 3d 5f a5 6c 3d
       -0.055091865 0.22318983 0.1215765 0.057774898
0000e0 af 51 f8 3d 4b e7 a4 3c d6 6d e2 bd a4 b1 1a 3e
       0.12124955 0.02012982 -0.11056106 0.15106827
0000f0 b2 16 a6 be 9a 5c 9c 3d ed 91 b6 3e ee ad 38 3d
       -0.3243919 0.0763485 0.35658208 0.045087747
000100 78 2f b1 3c bc 88 77 3e 22 ce 04 3d 96 04 fd bd
       0.02162908 0.24173254 0.032423146 -0.1235439
000110 34 32 03 bd 57 a2 93 3d c5 d1 19 bd e7 e3 09 bd
       -0.0320303 0.07208698 -0.037553567 -0.03366461
000120 6b 25 94 bd 17 26 d3 3d d6 48 87 3e 6a c2 c0 3e
       -0.072336994 0.103099994 0.26422757 0.37648326
000130 e2 28 8c 3d 24 64 1f bc 00 f4 0e 3e b7 5b 29 3b
       0.06843735 -0.009728465 0.13960266 0.002584202
000140 f8 97 34 bc 80 d0 3d bd 30 4e 82 bd c5 44 10 bd
       -0.01102256 -0.04634142 -0.06362569 -0.035221834
000150 a0 2d 3c be 2f 01 f2 3c 69 c8 fc 3d 4d e0 f1 bd
       -0.1837678 0.02954158 0.12342913 -0.1181036
000160 00 75 82 3d 9c 61 5d 3e f6 12 c3 bd 0e 5e 0f be
       0.06369972 0.21619266 -0.09525101 -0.14000723
000170 32 04 51 3c 2f 18 1a 3e da b2 40 3e f7 f2 ed bd
       0.012757348 0.15048288 0.18818226 -0.116186075
000180 55 74 47 be cc 16 79 3d 00 83 94 bd b6 22 cd bd
       -0.19477971 0.060812756 -0.07251549 -0.10016386
000190 44 9b 6f 3e c6 94 84 3c 40 cf 9a bc 8f 11 87 3d
       0.23399073 0.016184222 -0.018897653 0.06595146
0001a0 42 18 13 3e ec f6 01 3e 76 c4 d0 3c a3 5c 23 be
       0.14364722 0.1269185 0.025484305 -0.15953307
0001b0 94 eb 6f 3d 64 10 37 be 21 8b d9 bc 8d 4c 9f 3d
       0.058574274 -0.17877346 -0.0265556 0.07778273
0001c0 e2 01 7d 3c c0 cd b5 bd 89 93 1a 3e a0 ce 19 bd
       0.015442343 -0.08877134 0.15095343 -0.03755057
0001d0 00 46 07 3b ab c4 83 bd 26 b5 13 3e 45 3c 1b 3e
       0.0020641088 -0.06433996 0.14424571 0.1515971
0001e0 34 ef 12 be 4b 7c b0 bc c4 65 13 bd 50 85 4e bc
       -0.14349061 -0.021543643 -0.035985723 -0.012605026
0001f0 16 79 0f 3e fa 0b 4a 3e d0 50 47 3e b0 05 ca 3c
       0.14011034 0.19731131 0.19464421 0.024660915
000200 0c 31 63 3d db 47 86 3d e8 eb 22 be ac 5c ea 3d
       0.055466697 0.06556674 -0.15910304 0.11443457
000210 dd 47 0f 3e 0e 44 31 3d 20 1a 1a 3e 96 ee ec bd
       0.13992257 0.043277793 0.15049028 -0.11568944
000220 ab b0 24 bd 99 a7 d1 bb 73 ee ca bd 72 69 1c 3c
       -0.040207546 -0.006398153 -0.09908762 0.0095466245
000230 65 69 0b be c4 74 3e bd aa 9f ee 3d 58 aa 90 3c
       -0.13614424 -0.046498075 0.11651547 0.017659351
000240 36 fb 70 bd 30 ae fb bd 24 b8 ca bd 93 2a 08 3d
       -0.058833323 -0.12289083 -0.09898403 0.033243727
000250 af 8b 0c bd 06 f3 1f bd 83 2f b4 3d c3 64 0e be
       -0.0343129 -0.039050125 0.08798125 -0.13905625
000260 d4 bb c8 3d 13 f5 37 bc a2 75 dd bd 44 99 43 3e
       0.0980145 -0.011227864 -0.10813452 0.19101435
000270 83 15 c8 3d 25 2a 0b 3e 7d c8 59 3e a0 17 fd 3d
       0.09769728 0.13590296 0.21267886 0.12358022
000280 10 de 4b be 23 b1 09 3d f5 57 87 bd 51 e3 68 3d
       -0.19908929 0.033616196 -0.06608573 0.05685741
000290 c0 7c fd bd 40 41 d1 3d 4b e4 f2 bd b2 34 ec 3d
       -0.1237731 0.102175236 -0.1185995 0.11533488
0002a0 ca 5d 98 3c 98 7d 10 be 7a 95 1c 3d 1d bf 40 3d
       0.01859941 -0.1411041 0.03822849 0.04705726
0002b0 e3 c4 82 3d 10 42 95 3d 39 7c 19 3e 80 98 00 3e
       0.063852094 0.07287991 0.14988793 0.12558174
0002c0 cc 19 34 be ad ab cc bc 65 47 0d 3e 68 5f 4c be
       -0.17587966 -0.024984205 0.13796766 -0.1995827
0002d0 31 64 0b be 08 81 01 be 60 4c 07 bd 66 3e 5b 3c
       -0.13612439 -0.12646878 -0.03303182 0.013381576
0002e0 8c fc 41 3d c3 1f 48 be 6b c6 4c be a6 f4 b8 bd
       0.047359988 -0.19543366 -0.19997565 -0.09031038
0002f0 3a 4e 4b 3e 82 3d ad 3c 1d 56 21 3d 7e 90 0e 3d
       0.1985406 0.021147493 0.039388765 0.034805767
000300 80 93 09 3c 2e 3a c3 3d 26 b8 71 bd 88 92 d8 bd
       0.008396983 0.09532581 -0.05901351 -0.105748236
000310 d3 d4 70 3b dc 1a e2 bd cb 15 21 be d6 4e 30 be
       0.0036747947 -0.11040279 -0.1573097 -0.17217574
000320 15 76 3d bd ca 0c be 3d 6b 63 1b be 8b 78 28 be
       -0.04625519 0.09279783 -0.15174644 -0.16452233
000330 df 40 f0 3d 2e 3c da 3e 2a 1c b1 3d a1 55 71 bd
       0.11731123 0.42624038 0.0864795 -0.058919553
000340 85 ca 80 bd 93 a2 e2 bd 2c 58 02 bd f9 ba 14 bd
       -0.062886275 -0.11066165 -0.03182237 -0.036311124
000350 e6 0e 18 bd 28 a5 e8 bc 6b 3e 21 be 73 e2 11 3a
       -0.037123583 -0.028399065 -0.15746467 0.00055650546
000360 e1 4b 45 be 99 49 46 be 40 94 72 3d f3 94 21 3c
       -0.19267227 -0.19364013 0.059223413 0.009862172
000370 47 fa a6 3e 23 f4 d5 3d a8 fa 11 be 66 0d 18 3e
       0.3261282 0.10446956 -0.14255774 0.14848861
000380 2f ea 69 3c 45 6d 79 3c ac 19 17 3e ae 4d eb 3d
       0.014277025 0.015223806 0.14755887 0.114894256
000390 6d b4 b4 3d c6 30 84 3d ee 93 20 3e 3f 44 75 3e
       0.08823476 0.06454615 0.1568143 0.23951815
0003a0 6b 33 45 bd f2 6d 00 3e 1f b6 24 3c 36 b1 28 be
       -0.04814474 0.12541941 0.010053187 -0.1647385
0003b0 00 b4 87 3d cf eb 9f 3e ca 58 22 3d e6 65 d3 bd
       0.06626129 0.31234595 0.039635457 -0.1032217
0003c0 da 47 06 3e 71 01 83 3d 64 56 2b be 72 7b 3b bc
       0.13113347 0.06396759 -0.16732174 -0.011443006
0003d0 ca 6d c7 bc 53 73 ae 3e f2 67 bb 3d 48 a8 27 3e
       -0.024344344 0.3407236 0.09150685 0.16372788
0003e0 b7 bb 11 be 2b 72 1e be 73 c7 1d be aa ad 30 be
       -0.14231764 -0.15473239 -0.15408115 -0.17253748
0003f0 84 cb b9 3d 5e 2e d0 bd 5a b7 cf 3d 8d 39 95 3e
       0.09072021 -0.10165094 0.101423934 0.2914547
