composeApp/src/androidMain/assets/chatbot_model.tflite (tflite, 80972 bytes, 6 tensors)

arith.constant f4 [11, 64]
0	0xbe7718f7	-0.24130617
1	0xbe6f27de	-0.23355052
2	0x3f0f2a10	0.5592356
3	0x3e34351c	0.17598385
4	0xbf094601	-0.5362244
5	0xbd923e21	-0.071407564
6	0x3eb8c7c2	0.36089903
7	0x3f196d8d	0.59932786
8	0x3ec81a49	0.39082554
9	0x3d9e1e54	0.077206284
10	0xbe7bbcf9	-0.24583806
11	0x3e630a87	0.22171985
12	0xbcd94bff	-0.026525496
13	0x3e7a1f9b	0.24426119
14	0x3f51cabc	0.81949973
15	0x3eb2c687	0.3491709
16	0x3ebfe7c8	0.37481523
17	0x3edf3841	0.43597606
18	0xbee4a2e7	-0.44655535
19	0xba4dc8bc	-0.0007850041
20	0xbf0ade2e	-0.5424527
21	0xbdafdbed	-0.085868694
22	0xbe9b4cee	-0.3033213
23	0xbd97f04b	-0.07418879
24	0x3f294098	0.6611419
25	0xbebe9bb6	-0.37228173
26	0xbe964d4a	-0.29355842
27	0xbd9977ca	-0.07493551
28	0x3f013c50	0.50482655
29	0x3dd80aab	0.1054891
30	0xbe8387de	-0.25689596
31	0xbe9796bb	-0.29607186
32	0xbe269724	-0.16268593
33	0xbef6d8de	-0.48212332
34	0x3bf1ecfb	0.0073829866
35	0xbef4cfab	-0.47814688
36	0xbe70cc80	-0.2351551
37	0xbe9bba83	-0.30415735
38	0x3c0be081	0.008537413
39	0x3f01c419	0.50689846
40	0xbea3f21f	-0.3202066
41	0x3b87738a	0.0041336464
42	0xbe887821	-0.2665415
43	0x3ee25b20	0.44210148
44	0x3ea95ee9	0.33080223
45	0x3f1dd463	0.616522
46	0xbe6da93d	-0.2320909
47	0xbe159754	-0.14608508
48	0xbb932d71	-0.004491501
49	0x3d8c1a0d	0.06840906
50	0xbeb67792	-0.356381
51	0x3edd6c54	0.4324671
52	0x3e95e0f8	0.292732
53	0x3dfe7a53	0.12425675
54	0xbe953836	-0.29144448
55	0xbe7c8cdc	-0.24663109
56	0x3ed04c92	0.4068342
57	0xbe9b1929	-0.30292633
58	0xbececbfb	-0.4039
59	0xbe1c29c4	-0.15250307
60	0x3ef08019	0.4697273
61	0x3e0c1828	0.1368109
62	0x3dd5d45e	0.104408965
63	0xbe997c35	-0.29977575
64	0xbebe3505	-0.37149826
65	0x3ed639c4	0.41840947
66	0xbeb669d6	-0.3562762
67	0xbed8f212	-0.42372185
68	0x3e8c65f1	0.27421525
69	0xbe24f945	-0.16110714
70	0x3f0c48e5	0.5479873
71	0x3ed81d00	0.42209625
72	0xbea0dee3	-0.3142005
73	0xbec1cc64	-0.3785125
74	0xbd742b7e	-0.05961179
75	0x3e82f5f8	0.25578284
76	0xbe780bab	-0.24223201
77	0xbeacb535	-0.33732
78	0xbeb59284	-0.35463345
79	0xbf03716d	-0.5134495
80	0xbd858d16	-0.06521051
81	0xbea7f8cf	-0.32807013
82	0xbd627d1c	-0.055295095
83	0x3dd25787	0.10270601
84	0x3ef34005	0.4750978
85	0xbe86942a	-0.26284915
86	0xbde96b76	-0.1139745
87	0x3f033722	0.51256
88	0xbed71c5a	-0.42013818
89	0xbe622f19	-0.22088279
90	0xbeb3a513	-0.3508688
91	0x3df31d2a	0.11870797
92	0x3ecf8182	0.40528494
93	0xbed94d29	-0.4244168
94	0xbd9ab2ef	-0.0755366
95	0xbed612b4	-0.41811144
96	0x3f193a7b	0.5985486
97	0x3c9224a2	0.017839734
98	0x3e4abc91	0.19798495
99	0xbe80dc24	-0.25167954
100	0xbe7db7af	-0.24777101
101	0xbed31b51	-0.41231778
102	0x3d501e7e	0.05081033
103	0x3eda320a	0.42616302
104	0xbea8b912	-0.32953697
105	0xbe1fdfe1	-0.15612747
106	0x3eec244b	0.4612144
107	0x3eed613e	0.46363252
108	0x3ecbe39f	0.398221
109	0xbecca561	-0.39969924
110	0x3ec5fb13	0.38668117
111	0x3dd80f80	0.105498314
112	0xbe949027	-0.2901623
113	0x3edee45b	0.43533596
114	0xbf066b46	-0.52507436
115	0x3eb5e454	0.35525763
116	0x3ef846c3	0.48491487
117	0xbedf7450	-0.43643427
118	0xbe6f9115	-0.23395188
119	0xbe967fb2	-0.293943
120	0xbeb968bf	-0.36212727
121	0xbe337e50	-0.17528653
122	0x3eed4fa4	0.46349823
123	0xbd789e33	-0.060697746
124	0x3f03464c	0.5127914
125	0x3ebd3ca1	0.3696032
126	0xbed07433	-0.40713653
127	0xbeb98c9a	-0.36240083
128	0x3f04f307	0.5193333
129	0xbeddc03c	-0.43310726
130	0x3e269b3e	0.16270158
131	0xbe9895a7	-0.29801676
132	0xbea73763	-0.32659444
133	0x3e85f22b	0.26161322
134	0xbefb564d	-0.4908928
135	0x3d9753e9	0.073890515
136	0xbe8d87ab	-0.2764257
137	0xbcac3160	-0.021019638
138	0x3eaa7928	0.3329556
139	0xbec7286d	-0.3889803
140	0xbec918e7	-0.3927681
141	0x3eac275b	0.33623776
142	0x3f15b740	0.5848274
143	0x3ec72569	0.3889573
144	0xbe83d30f	-0.25746962
145	0x3eb0d23d	0.345354
146	0x3eeec8ac	0.46637475
147	0xbebbdba5	-0.36691013
148	0xbe38adfc	-0.1803512
149	0x3ed7102e	0.42004532
150	0x3e9944a0	0.2993517
151	0xbe061940	-0.1309557
152	0x3f160a42	0.586094
153	0xbeb8e0b8	-0.36108947
154	0xbec17a9d	-0.3778886
155	0x3e6b1030	0.22955394
156	0xbea2d5b3	-0.31803665
157	0xbe4839bc	-0.19553274
158	0xbd87707c	-0.066132516
159	0x3ed3066f	0.41215846
160	0xbdf30910	-0.11866963
161	0x3ea3916c	0.31946886
162	0x3edfcaab	0.4370931
163	0xbe0a210c	-0.13489169
164	0x3e1aab21	0.15104343
165	0x3dcd10b5	0.10012952
166	0xbd8bb28d	-0.06821165
167	0xbeb62254	-0.35573065
168	0x3f0bc7cb	0.54601735
169	0xbe8be26e	-0.2732119
170	0xbf020afd	-0.50798017
171	0x3ed5bf3d	0.41747466
172	0x3e881713	0.26580104
173	0x3e89f12f	0.2694182
174	0x3ed00197	0.40626213
175	0x3e811fb1	0.2521949
176	0x3e7aa717	0.24477802
177	0xbab53154	-0.0013823905
178	0x3f0d90e7	0.5529923
179	0xbea9bc16	-0.3315131
180	0xbdbe5419	-0.09293384
181	0x3e864ed9	0.2623203
182	0x3d9d05e6	0.07667141
183	0x3d636352	0.05551464
184	0xbe89c2d2	-0.2690645
185	0x3f18b1ca	0.59646285
186	0x3e80a66f	0.2512698
187	0xbeb3c4d6	-0.3511111
188	0xbf03d1bc	-0.51491904
189	0xbe052ef3	-0.13006191
190	0xbd91fbb0	-0.07128084
191	0xbe828e7f	-0.2549934
192	0xbe941ac7	-0.2892668
193	0x3f1f19de	0.62148845
194	0x3e054a16	0.13016543
195	0xbe059204	-0.13043982
196	0xbefdacf8	-0.49546027
197	0xbea37e9e	-0.3193254
198	0x3e02db48	0.12778962
199	0xbd5bda00	-0.053674698
200	0x3ed02e11	0.40660146
201	0x3f168286	0.5879291
202	0xbd16b239	-0.03679106
203	0x3efb1a50	0.49043512
204	0x3e7fb019	0.2496952
205	0x3e2188d1	0.15774848
206	0xbee75b5f	-0.45186898
207	0x3f1bf399	0.60918576
208	0xbe883651	-0.2660394
209	0xbe7865d2	-0.24257591
210	0xbec49463	-0.3839446
211	0x3f07fb93	0.53118247
212	0xbe84cd23	-0.25937757
213	0x3e86e555	0.2634684
214	0xbea431ad	-0.3206915
215	0x3e423771	0.18966462
216	0x3e5fadc9	0.21843638
217	0x3ef84699	0.48491362
218	0x3f009a81	0.50235754
219	0xbe28725d	-0.16449876
220	0xbd7e9947	-0.062157895
221	0x3eb5050d	0.35355416
222	0x3e8d7eec	0.27635896
223	0xbccfbe9f	-0.02535945
224	0x3e1f4ff9	0.15557851
225	0xbf0f2968	-0.55922556
226	0x3e2dcdb0	0.16972995
227	0x3ea4376c	0.32073534
228	0xbe8f83b9	-0.28030184
229	0xbe8b2c67	-0.27182314
230	0x3da1d63a	0.079021886
231	0xbe9297ef	-0.2863154
232	0xbe26646d	-0.16249247
233	0x3eee64dc	0.46561325
234	0xbe396cfc	-0.1810798
235	0xbef49061	-0.47766402
236	0xbebb15d6	-0.36540097
237	0xbe522945	-0.20523556
238	0xbc973c0a	-0.018461246
239	0xbebc629e	-0.3679399
240	0xbb820cee	-0.0039688265
241	0xbf14cfbe	-0.5812949
242	0xbdfbc8e0	-0.12294173
243	0x3eb66b21	0.35628608
244	0xbeb12984	-0.34601986
245	0xbc4c86ed	-0.012483341
246	0xbd8bba4a	-0.06822641
247	0xbeae71e6	-0.34071273
248	0x3f07225c	0.52786803
249	0x3d0c46e2	0.034247287
250	0x3eb11ea5	0.34593692
251	0xbeba3ebc	-0.36375988
252	0xbef9224d	-0.48658982
253	0xbeea9c47	-0.45822355
254	0x3ecb9e01	0.39768985
255	0xbed68f30	-0.41906118

arith.constant1 f4 [64, 128]
0	0x3e3db662	0.18526605
1	0xbd7989d6	-0.060922466
2	0xbdcf89f0	-0.10133731
3	0x3ca7912f	0.020454971
4	0x3de148ba	0.110001996
5	0xbcbfe1af	-0.023423044
6	0x3bfd67b4	0.0077333096
7	0x3e0f2fdb	0.13983099
8	0xbe1d5893	-0.1536582
9	0xbe23c7c6	-0.15994176
10	0xbc72c1d6	-0.014816722
11	0x3e8752a4	0.26430237
12	0xbce63f6c	-0.028106414
13	0x3d8bfb7f	0.068350784
14	0x3dbc273b	0.0918717
15	0xbdc9f112	-0.09860434
16	0x3dde8d10	0.10866749
17	0xbdecbe40	-0.11559725
18	0x3e443aa8	0.19163
19	0xbe6e5063	-0.23272853
20	0xbe4e665e	-0.20156237
21	0xbdb264f4	-0.087106615
22	0x3df243a7	0.1182931
23	0x3dbca5f6	0.09211342
24	0x3ccb81a8	0.024842098
25	0xbdc77b03	-0.097402595
26	0xbe09e661	-0.13466789
27	0x3db85a60	0.09001613
28	0xbd893997	-0.067004375
29	0xbd184dd2	-0.03718359
30	0x3be6fd9c	0.0070492756
31	0xbe3b7e2a	-0.18309847
32	0x3ea5bfc6	0.32372874
33	0xbe45d225	-0.19318445
34	0xbe236a01	-0.15958406
35	0xbdd3f870	-0.1035012
36	0xbe56f8ec	-0.20993394
37	0x3c876a07	0.01653005
38	0xbc609f11	-0.013709799
39	0x3dbb01c8	0.09131199
40	0x3e7d2bd3	0.24723749
41	0x3d1021f2	0.035188623
42	0x3e17cc7a	0.14824095
43	0xbd70b449	-0.058765683
44	0xbd2f8b3a	-0.042857386
45	0xbe1c04c9	-0.152362
46	0x3dab15a3	0.08353736
47	0x3e9b31c8	0.30311418
48	0x3db05656	0.08610217
49	0xbd6ba3f8	-0.05752942
50	0x3e330d9a	0.17485657
51	0x3e4a191d	0.19736142
52	0xbd8502ea	-0.064946964
53	0xbe133cd0	-0.14378667
54	0xbd1eb0e1	-0.038742904
55	0xbe186111	-0.14880778
56	0x3e1ad491	0.1512015
57	0x3deb0f3f	0.11477517
58	0xbd5ccf28	-0.053908497
59	0x3de006ae	0.10938774
60	0xbe215366	-0.1575447
61	0xbe0a5959	-0.13510646
62	0xbdd3d471	-0.10343254
63	0xbdb80619	-0.08985538
64	0x3e336ea5	0.17522676
65	0x3cc73e8c	0.024321817
66	0xbcce7ea5	-0.025206873
67	0xbd4e9f29	-0.050444756
68	0xbe130f23	-0.14361243
69	0x3df46baf	0.119346015
70	0x3e89a7b8	0.26885772
71	0x3e701205	0.23444374
72	0xbcefe425	-0.029283592
73	0xbd123dc6	-0.035703443
74	0xbe78f763	-0.2431312
75	0x3e4c86ac	0.19973248
76	0x3e91cf2d	0.28478375
77	0x3cc24556	0.023714703
78	0xbe5707cd	-0.2099907
79	0x3e182f25	0.14861734
80	0x3c0a0e0c	0.008426201
81	0x3e27c32f	0.1638305
82	0xbd926ee6	-0.071500584
83	0x3de2ba99	0.11070747
84	0xbd908fa4	-0.07058647
85	0xbeccacc8	-0.39975572
86	0xbe002460	-0.12513876
87	0x3c2d931c	0.010594156
88	0xbde7da0c	-0.11320886
89	0xbe39f28e	-0.18158934
90	0xbdbc08f6	-0.09181397
91	0x3da98739	0.08277745
92	0x3e88bdc8	0.26707292
93	0xbdb1e7b7	-0.08686774
94	0xbdb23704	-0.087019
95	0x3e2bf626	0.16793117
96	0xbe82fa05	-0.25581375
97	0x3e87f01b	0.26550373
98	0x3d7f6995	0.06235655
99	0xbd925169	-0.07144434
100	0x3e1ccad2	0.15311745
101	0x3d83af63	0.06429937
102	0xbe0ace25	-0.135552
103	0xbe28e6b2	-0.16494253
104	0xbdeae412	-0.11469282
105	0x3dc4f6cb	0.096173845
106	0xbe44dc34	-0.19224626
107	0x3bfa7b6b	0.007644107
108	0x3e3fb3ab	0.18720882
109	0xbdc35289	-0.09537227
110	0xbd63fbc8	-0.05566004
111	0x3e4a122f	0.19733499
112	0xbdbcf2a9	-0.09225971
113	0xbda031b4	-0.0782198
114	0x3ca5b233	0.020226574
115	0xbde4533b	-0.111486875
116	0x3e611b88	0.21983159
117	0xbe00c034	-0.1257332
118	0x3ca0ac20	0.019613326
119	0xb9a6b999	-0.00031800268
120	0x3d61d461	0.05513418
121	0x3e174699	0.14773025
122	0x3e2b1871	0.16708542
123	0x3e52a0a2	0.20569089
124	0x3d14e0d7	0.036347236
125	0xbd7bf41e	-0.061512105
126	0xbe04333b	-0.12910168
127	0x3e2c53b2	0.16828802
128	0xbdf49281	-0.11942006
129	0x3db629a7	0.08894663
130	0xbe075712	-0.13216808
131	0x3e701b5a	0.23447934
132	0x3e36edf3	0.17864208
133	0xbda1228e	-0.07867919
134	0xbe5800a4	-0.21093994
135	0x3e048cd5	0.12944348
136	0xbe7d9096	-0.24762186
137	0x3cac4378	0.021028265
138	0x3e481f1f	0.19543122
139	0xbc6fc2aa	-0.014633814
140	0x3de5400b	0.11193856
141	0x3e6d5117	0.23175465
142	0x3d369613	0.044576716
143	0x3e904f61	0.2818556
144	0xbe27330d	-0.16328068
145	0x3e73987b	0.23788635
146	0x3d1426ea	0.036169924
147	0xbe2aa3d7	-0.16664062
148	0xbceea65f	-0.029132066
149	0x3e63ca46	0.2224513
150	0xbe592e0b	-0.2120897
151	0xbd1f3d1a	-0.03887663
152	0x3cef6647	0.029223574
153	0xbc12992a	-0.00894765
154	0x3d3539e7	0.044244673
155	0xbd5ba1fc	-0.053621277
156	0xbda2145e	-0.07914041
157	0x3d8951ec	0.067050785
158	0x3dfecaec	0.12441048
159	0x3e180d12	0.14848736
160	0xbcf7713b	-0.03020536
161	0xbe1c358e	-0.15254804
162	0xbdc9216f	-0.0982083
163	0xbca18514	-0.019716777
164	0x3da7f0ff	0.08200263
165	0xbe6554c7	-0.22395621
166	0x3df5ea7c	0.12007615
167	0x3e2bead8	0.16788805
168	0x3e1d1b55	0.15342458
169	0xbd01da4c	-0.031702325
170	0xbdf0ab73	-0.11751451
171	0x3d30a981	0.0431304
172	0xbc4c3b05	-0.012465243
173	0x3e08e642	0.13369086
174	0xbe661fad	-0.22473021
175	0x3e2b6699	0.16738357
176	0x3d4f61f2	0.050630517
177	0x3e99e44e	0.30056995
178	0xbe433c11	-0.19065882
179	0x3df9d12d	0.121981
180	0x3e0b58ac	0.13608044
181	0x3dc39181	0.09549237
182	0x3cbca7bb	0.023029199
183	0x3d8b1dfa	0.06792827
184	0x3e8b930f	0.27260634
185	0x3e3a7328	0.18207991
186	0x3ca4d645	0.020121703
187	0x3e0c6a45	0.13712414
188	0x3ebef133	0.37293395
189	0xbda16d3a	-0.078821614
190	0xbe3509c2	-0.17679504
191	0x3e8a074f	0.269587
192	0x3e368559	0.17824306
193	0x3de1abf8	0.110191286
194	0x3e5858ee	0.21127674
195	0x3da0af3b	0.078459226
196	0xbe516457	-0.20448433
197	0xbd3d1d0a	-0.046170272
198	0x3decb3dc	0.11557743
199	0xbdbedb46	-0.09319167
200	0x3c109b1b	0.0088260425
201	0x3da4f6c6	0.08054881
202	0x3be154d7	0.006876569
203	0x3ddf7afe	0.10912131
204	0xbce847c6	-0.028354537
205	0xbe5c751d	-0.2152905
206	0xbda67ebf	-0.08129644
207	0xbd803e58	-0.06261891
208	0x3d2e0b0a	0.042490996
209	0x3d40b25a	0.04704509
210	0x3e084a19	0.13309516
211	0xbe439534	-0.19099885
212	0xbd43f495	-0.047840673
213	0x3d4a7207	0.04942515
214	0xbcba7dcb	-0.02276506
215	0x3e81ac4f	0.25326774
216	0xbd9198dc	-0.07109234
217	0x3e3fc1f6	0.18726334
218	0xbe0732ac	-0.13202924
219	0x3d82ccc4	0.06386712
220	0xbd12b046	-0.03581264
221	0x3df4dbaf	0.11955964
222	0xbe24e4e4	-0.1610294
223	0xbd7c9e5b	-0.061674457
224	0x3dbe9b7e	0.093070015
225	0xbb87d1a9	-0.0041448665
226	0xbe9c04e9	-0.30472496
227	0xbe571f77	-0.21008097
228	0x3e072e13	0.1320117
229	0xbe80f923	-0.25190076
230	0xbe19d7f2	-0.15023783
231	0xbe3a2017	-0.18176304
232	0x3cb78eee	0.022407021
233	0xbca8d84c	-0.02061095
234	0x3e2faf85	0.17156799
235	0xbe2261b9	-0.1585759
236	0x3d050ede	0.03248488
237	0xbe305eb6	-0.1722363
238	0xbe1ffa59	-0.15622844
239	0x3ec31c90	0.3810773
240	0xbd9169bf	-0.071002476
241	0x3e42afec	0.19012421
242	0xbe357d4e	-0.17723581
243	0xbe3943b0	-0.18092227
244	0xbdc202ab	-0.09473165
245	0xbe480ff0	-0.1953733
246	0x3d06e469	0.032932673
247	0xbd16e1b7	-0.036836352
248	0xbe36e0b6	-0.17859158
249	0xbe093580	-0.13399315
250	0xbe215b12	-0.15757397
251	0xbbb7bfc5	-0.0056075775
252	0x3d74ff0a	0.059813537
253	0x3da3ff96	0.080077335
254	0x3deecb9b	0.116599284
255	0x3d30e51e	0.043187253

arith.constant2 f4 [11]
0	0xbe82b5e2	-0.2552939
1	0xbdc32d9a	-0.09530182
2	0xbea0ae1c	-0.31382835
3	0x3f2ac771	0.66710573
4	0xbddebec2	-0.10876228
5	0x3e60718d	0.21918316
6	0xbc90d5e8	-0.017680123
7	0x3e9eb754	0.30999243
8	0xbed179dc	-0.40913284
9	0xbe1c1bf2	-0.15245035
10	0x3e1feab7	0.1561688

sequential_1/dense_1_2/Add/ReadVariableOp f4 [64]
0	0x3dc79cdb	0.09746715
1	0x3e979df2	0.2961269
2	0x3da371d8	0.07980698
3	0x3d78d931	0.060754005
4	0xbbfe030c	-0.007751828
5	0x3d8dcec9	0.06924207
6	0x3e160f77	0.14654337
7	0x3978ddcc	0.00023733749
8	0x3e59006f	0.21191572
9	0x3eab6241	0.334734
10	0x3dc60c20	0.096702814
11	0x3df2e83b	0.11860701
12	0x3c4f55cc	0.012654733
13	0x3e595047	0.2122203
14	0xbcb1ed4b	-0.021719595
15	0x3e270ada	0.16312733
16	0x3e0fcdc8	0.14043343
17	0x3cff495b	0.031162908
18	0x3e1d5359	0.15363826
19	0x3e25f727	0.16207562
20	0xbc895ae8	-0.01676698
21	0x3e595bdc	0.21226448
22	0x3da476e9	0.08030493
23	0x3e493410	0.19648767
24	0x3d5e8305	0.05432417
25	0x3ebc08eb	0.36725554
26	0x3e2243f0	0.15846229
27	0xbc8ff02a	-0.017570574
28	0x3e2de35c	0.16981262
29	0x3e797537	0.2436112
30	0x3da8a36b	0.082342945
31	0x3d524842	0.05133844
32	0x3d9aa720	0.07551408
33	0x3e6686f3	0.22512417
34	0x3d77ea65	0.06052627
35	0x3e90b308	0.2826159
36	0xbd10f302	-0.035388
37	0x3d63a970	0.05558151
38	0x3db319f2	0.08745183
39	0x3e0d8b90	0.1382277
40	0x3d177511	0.036976878
41	0x3e3158e6	0.17319068
42	0x3b13348a	0.0022461736
43	0x3e0c7cd7	0.13719498
44	0xbd921e1e	-0.07134651
45	0x3daad933	0.08342209
46	0x3e2a5103	0.16632466
47	0xbc775fba	-0.015098507
48	0x3bb09dba	0.005389896
49	0xbcb18e71	-0.021674367
50	0x3df827c8	0.12116963
51	0x3e0654b8	0.13118255
52	0x3dfb60df	0.12274336
53	0x3dd67511	0.104715474
54	0xbc8b365a	-0.01699369
55	0xbe1229a0	-0.14273691
56	0x3e797760	0.24361944
57	0x3e5c1316	0.21491656
58	0x3e20d3d6	0.15705809
59	0x3d8b2246	0.067936465
60	0x3e08111e	0.1328778
61	0x3de2b246	0.11069159
62	0x3e803d6d	0.25046864
63	0x3ce6b077	0.028160317

sequential_1/dense_1/Add/ReadVariableOp f4 [128]
0	0x3d6eca2c	0.058298275
1	0x3e975519	0.29557112
2	0x3e433749	0.19064058
3	0x3db64114	0.088991314
4	0xbd7c5fc0	-0.06161475
5	0x3d1827e5	0.03714742
6	0xbd3a3075	-0.04545637
7	0xbccfa045	-0.025344977
8	0x3da99988	0.08281237
9	0x3ca327fd	0.019916529
10	0x3dd703a1	0.10498739
11	0x3d2ddd56	0.04244741
12	0x3e358a01	0.17728426
13	0xbc372f56	-0.011180719
14	0x3d6ccc7b	0.057812195
15	0x3e4a4fa7	0.19756947
16	0x3d8a9876	0.06767361
17	0x3e3318d0	0.17489934
18	0x3d1a5106	0.037674926
19	0x3e37399c	0.1789307
20	0x3da9ab85	0.08284668
21	0xbce95d01	-0.02848673
22	0x3be868b1	0.0070925583
23	0x3e713e96	0.23559031
24	0xbd71d444	-0.059040323
25	0xbd79747a	-0.060902096
26	0x3e085cb1	0.13316609
27	0x3e5e618f	0.21716903
28	0x3d1ac3d3	0.03778441
29	0x3e0743b7	0.13209425
30	0x3df70cab	0.12062963
31	0x3e10c126	0.1413618
32	0xbc80ab57	-0.015706701
33	0xbd908436	-0.07056467
34	0x3e31320b	0.17304246
35	0xbd17cdc3	-0.037061464
36	0x3e3e4d89	0.18584265
37	0x3e197dd4	0.14989406
38	0xbd180f54	-0.037123993
39	0xbd24ab6b	-0.04020254
40	0x3e807d57	0.25095627
41	0xbdba6ae9	-0.09102423
42	0x3e13155a	0.14363614
43	0xbd806fe7	-0.06271344
44	0xbc75921f	-0.014988451
45	0x3e7f0e12	0.24907711
46	0xbd9ad9c3	-0.07561066
47	0x3e3d77eb	0.18502776
48	0xbd1189c2	-0.035531767
49	0xbd5a1a02	-0.05324746
50	0xbd1fba29	-0.038995896
51	0x3e1bdc42	0.1522074
52	0x3d728912	0.05921275
53	0xbb8dda94	-0.004329035
54	0x3c8e95a1	0.017405333
55	0xbd69330e	-0.056933455
56	0x3e7e41e3	0.24829821
57	0x3cf75aba	0.030194629
58	0x3d1b5396	0.03792151
59	0x3ca090db	0.019600322
60	0x3dcf0829	0.10108978
61	0xbd4a871a	-0.04944525
62	0xbdeb4d7b	-0.114893876
63	0x3e2af8a7	0.16696416
64	0xba70893c	-0.0009175723
65	0x3d7b851b	0.061406236
66	0xbdb451ad	-0.08804641
67	0xbdf0215c	-0.11725113
68	0x3e467000	0.19378662
69	0x3cd9c8ac	0.026584946
70	0xbcb90750	-0.022586495
71	0xbe2fbcfc	-0.17161936
72	0x3c306bdf	0.010767906
73	0x3dd91a9f	0.10600781
74	0x3e4a1524	0.19734627
75	0x3d3253f6	0.043537103
76	0xbd8ed694	-0.06974521
77	0xbd0861a2	-0.033296235
78	0x3ca18007	0.019714369
79	0x3e6f8ee2	0.23394349
80	0xbcf86bc0	-0.030324817
81	0x3bedb75f	0.0072545256
82	0x3d3955cb	0.045247834
83	0x3dfab484	0.12241462
84	0x3ce0af0a	0.027427215
85	0x3dc84b33	0.09779968
86	0xbd9769ca	-0.073932245
87	0xbd40c015	-0.047058184
88	0x3db805ac	0.08985457
89	0xbdb88b13	-0.09010901
90	0xbda5abad	-0.08089385
91	0x3e2e31aa	0.17011133
92	0x3d94e3b4	0.072699934
93	0xbc24a980	-0.010050178
94	0x3dc8eb4b	0.098105036
95	0xbe3b1417	-0.18269382
96	0x3de7d988	0.11320788
97	0x3c9c292b	0.0190626
98	0x3cf3a1c0	0.029740214
99	0xbd1d060b	-0.03833584
100	0x3c60daca	0.013724038
101	0xbcb2e1a3	-0.021836108
102	0x3bf0d135	0.007349158
103	0x3e4aa596	0.19789729
104	0x3e1b0207	0.15137492
105	0x3e4219fc	0.18955225
106	0x3dce3049	0.100678034
107	0xbc69e92e	-0.014276786
108	0x3e034bda	0.12821904
109	0x3e04fbb0	0.12986636
110	0x3e23f474	0.1601122
111	0x3d9ce84a	0.07661493
112	0x3dae5a9c	0.08513376
113	0xbca5df97	-0.020248218
114	0x3e644a9d	0.22294088
115	0x3c5ba0c6	0.013405031
116	0x3d04f84f	0.032463368
117	0x3cb37a46	0.02190889
118	0x3cc69b2c	0.024243914
119	0x3cfd01fb	0.030884733
120	0x3e09a522	0.134419
121	0xbde2974c	-0.11064014
122	0xbb978235	-0.004623676
123	0x3d70ccbe	0.058789007
124	0x3e8245fb	0.25444016
125	0xbdebd2a3	-0.11514785
126	0x3dbbcffb	0.091705285
127	0x3e7d83a6	0.24757251

sequential_1/dense_1/MatMul f4 [128, 83]
0	0xbd62e308	-0.055392295
1	0x3dfea303	0.12433436
2	0x3d675f91	0.056487624
3	0x3db20666	0.08692627
4	0xbda9d652	-0.082928315
5	0xbc71dce7	-0.01476214
6	0xbe247957	-0.16061912
7	0xbdebbd2a	-0.115106896
8	0x3df1d4bd	0.11808155
9	0xbdbaa4cc	-0.09113464
10	0x3d020fd0	0.03175336
11	0xbe17b718	-0.14815938
12	0x3c92e361	0.017930688
13	0x3e858382	0.26076895
14	0xbe1282ab	-0.14307658
15	0x3e118b10	0.14213204
16	0x3dd40ce4	0.10354021
17	0xbbfa124e	-0.0076315766
18	0x3c40b8f9	0.011762851
19	0x3df52809	0.11970527
20	0xbe0256c4	-0.12728411
21	0xbd90e18c	-0.0707427
22	0x3e62fc70	0.2216661
23	0xbcfc0881	-0.030765774
24	0xbcfaa665	-0.030596921
25	0x3e827879	0.25482538
26	0x3d03e380	0.032199383
27	0xbdfefe1a	-0.1245081
28	0x3e094122	0.13403752
29	0x3e5ab784	0.21359068
30	0xbb6b2def	-0.0035885533
31	0xbd8b9b91	-0.06816781
32	0xbe456c0f	-0.19279502
33	0xbd7cab74	-0.061686948
34	0xbe28f4d5	-0.16499646
35	0xbd552e9f	-0.052046414
36	0xbe4d07e8	-0.20022547
37	0x3dcbf715	0.099592365
38	0x3ddb11c1	0.10696746
39	0xbe05f85f	-0.13083027
40	0xbd4eb1ae	-0.050462417
41	0xbcdc69d3	-0.02690593
42	0x3e0cb7db	0.1374201
43	0xbd22aa4a	-0.03971318
44	0xbdd4a5ea	-0.10383208
45	0xbd53a255	-0.051668484
46	0xbe14463e	-0.1447992
47	0xbd16f99a	-0.036859132
48	0xbe0a8439	-0.13527001
49	0xbc3b5c60	-0.011435598
50	0x3e613ad0	0.21995091
51	0x3e08c54a	0.1335651
52	0x3d8711c8	0.065951884
53	0x3e0f49ad	0.13992949
54	0xbd313dfe	-0.04327201
55	0x3e1be24c	0.15223044
56	0x3de1c2c2	0.11023475
57	0xbdb80460	-0.089852095
58	0x3e293b2d	0.1652648
59	0xbd8c138c	-0.06839666
60	0xbc7aa1d0	-0.015297368
61	0xbd91f1a8	-0.071261704
62	0xbe62b5e1	-0.22139694
63	0x3c82bc9c	0.015959077
64	0xbdf4385c	-0.11924812
65	0x3e04d305	0.12971123
66	0x3e25ed60	0.16203833
67	0x3e1ccf2d	0.15313406
68	0xbde6ac0e	-0.112632856
69	0xbe1733de	-0.1476588
70	0x3cf36a0f	0.029713659
71	0x3d13653c	0.035985216
72	0xbe38eccf	-0.18059085
73	0xbdd45c52	-0.10369171
74	0x3d9271dc	0.07150623
75	0xbda8f031	-0.08248938
76	0xbc134790	-0.00898923
77	0xbd9bc925	-0.07606725
78	0x3e0ee538	0.13954628
79	0x3cf81dcc	0.030287646
80	0x3dea4b33	0.11440124
81	0x3e0a9791	0.1353438
82	0x3d86de2a	0.06585343
83	0xbd7e489e	-0.062080972
84	0xbe7866dd	-0.24257989
85	0xbe21926e	-0.15778515
86	0x3e7e8535	0.24855502
87	0x3e4b7629	0.19869293
88	0xbcfbe94b	-0.030750891
89	0x3e993b39	0.29927996
90	0xbcba2edf	-0.022727428
91	0xbe0204fe	-0.12697217
92	0x3b83af1b	0.004018677
93	0xbd87e5e3	-0.06635644
94	0xbd2bbd52	-0.041928597
95	0x3b416844	0.002951161
96	0xbe6f3db1	-0.23363377
97	0x3d55d9c6	0.052209638
98	0xbd84544c	-0.06461391
99	0x3ba98cbb	0.005174247
100	0x3e14c0be	0.1452665
101	0xbe2aed47	-0.16692077
102	0x3cbb4f84	0.022865064
103	0x3d8bbf9d	0.06823657
104	0xbe0aa3b3	-0.13539009
105	0x3d8707b4	0.06593266
106	0xbe94fc9b	-0.29098973
107	0xbda3e83e	-0.08003281
108	0x3d55cba5	0.052196164
109	0x3d70fdf3	0.058835935
110	0x3cc10e34	0.023566343
111	0xbbe5b2f3	-0.007009858
112	0x3d5d4cea	0.05402843
113	0x3dda9aad	0.10674033
114	0xbe32c0b2	-0.1745632
115	0xbebae3c4	-0.36501896
116	0x3dd3a48a	0.10334118
117	0x3e3fb48e	0.1872122
118	0xbdc5a895	-0.09651295
119	0x3de53fbc	0.11193797
120	0x3d922a02	0.071369186
121	0xbd6437e2	-0.055717357
122	0xbe055ef9	-0.1302451
123	0xbd4d68d3	-0.050148796
124	0xbdda60ab	-0.10662969
125	0xbd267a9d	-0.040644277
126	0xbe800c84	-0.2500955
127	0x3cfe716a	0.03105994
128	0x3e04cd2c	0.12968892
129	0x3d82ae83	0.06380942
130	0xbe1e0663	-0.15432124
131	0xbe566332	-0.20936278
132	0x3e907546	0.28214473
133	0xbe0afa8d	-0.1357214
134	0xba98f1a8	-0.0011668699
135	0xbda47732	-0.08030547
136	0x3d729b87	0.059230354
137	0xbde2c0b0	-0.110719085
138	0x3c84572f	0.016154854
139	0xbd8567df	-0.065139525
140	0xbdbd8e96	-0.09255712
141	0xbe343d97	-0.1760162
142	0xbd8908b2	-0.066911116
143	0x3e605008	0.2190553
144	0xbd94955d	-0.07255051
145	0xbdd6f362	-0.1049564
146	0xbce6ad03	-0.02815867
147	0x3da6f6e5	0.0815256
148	0x3e59df57	0.21276604
149	0x3deac3bf	0.11463117
150	0x3e228435	0.15870745
151	0x3d4cc0e3	0.04998864
152	0x3d686d75	0.05674501
153	0x3d8f1c6c	0.06987843
154	0xbd8d08c4	-0.068864375
155	0xbe23484a	-0.15945545
156	0xbe553e66	-0.20824584
157	0xbe091388	-0.13386357
158	0xbe545de2	-0.20738938
159	0x3d2f62d4	0.04281886
160	0xbcaf5899	-0.021404551
161	0xbd6fa517	-0.05850705
162	0xbddcffb9	-0.10790963
163	0x3e243d0b	0.16038911
164	0x3cc66a87	0.024220718
165	0x3dc935a3	0.098246835
166	0xbdd490fa	-0.103792146
167	0x3d0162e3	0.031588446
168	0x3e6294d1	0.22127081
169	0xbe254fdd	-0.16143747
170	0x3e98c5a9	0.29838303
171	0xbd8076ec	-0.062726825
172	0xbe32c20f	-0.1745684
173	0xbcd643f7	-0.026155455
174	0x3df3f66f	0.11912238
175	0xbbbcc83a	-0.0057611736
176	0xbd9ce6c3	-0.07661202
177	0x3e9b396a	0.3031724
178	0xbe051f24	-0.1300016
179	0x3d320961	0.043465976
180	0xbd3463c6	-0.044040464
181	0x3d57b6bb	0.0526645
182	0x3e1de963	0.15421061
183	0xbe232f46	-0.15936002
184	0xbd9e2f48	-0.07723862
185	0xbd4811bb	-0.048845034
186	0x3dc892b6	0.09793608
187	0x3e32c9b3	0.17459755
188	0x3e32e7a8	0.17471182
189	0x3e45adc1	0.19304563
190	0x3da9782a	0.082748726
191	0xbddc5e99	-0.107602306
192	0xbd2775c2	-0.040883787
193	0xbe13ff3b	-0.14452831
194	0xbdf84366	-0.1212223
195	0x3c8bc415	0.017061273
196	0xbdcc3ea4	-0.09972885
197	0xbce91ada	-0.028455187
198	0xbe44fead	-0.19237776
199	0x3f128551	0.57234675
200	0xbe1e80fd	-0.15478893
201	0xbc7ce7c5	-0.015436118
202	0xbdba805d	-0.091065146
203	0xbdca1e1a	-0.09869023
204	0xbde5afcd	-0.11215172
205	0x3c34eeaa	0.01104323
206	0xbdf998e5	-0.121873654
207	0xbe002ed7	-0.12517868
208	0xbc239f44	-0.009986702
209	0x3e85d57f	0.26139447
210	0x3e1483bf	0.14503382
211	0x3e876680	0.2644539
212	0x3dd5e0a4	0.104432374
213	0xbba53156	-0.0050412817
214	0x3d0ae660	0.03391111
215	0xbe99762c	-0.2997297
216	0xbca8ddb8	-0.020613536
217	0xbe6f6903	-0.23379903
218	0xbd954352	-0.07288231
219	0x3cc3e0a9	0.023910837
220	0xbcb88734	-0.022525407
221	0xbcb54bc0	-0.022130847
222	0x3dddcd7b	0.10830208
223	0xbe1b56c1	-0.15169813
224	0x3ca55ce8	0.020185903
225	0x3e55ac6c	0.20866555
226	0x3d63a476	0.055576764
227	0x3e0484f9	0.1294135
228	0xbe0983dc	-0.13429207
229	0x3e227f20	0.15868807
230	0x3d84c7ff	0.06483459
231	0xbe98c52e	-0.29837936
232	0xbe124191	-0.14282824
233	0xbe23b883	-0.15988354
234	0x3d7745cd	0.0603693
235	0x3d45b344	0.048266664
236	0xbd1b18b5	-0.03786536
237	0xbdade356	-0.084906265
238	0xbcaa460a	-0.02078535
239	0x3e19f29f	0.15033959
240	0x3dfb8562	0.122813
241	0xbd95aa6b	-0.07307895
242	0x3e288382	0.16456416
243	0x3d9cb3e2	0.076514974
244	0xbe0ca206	-0.13733682
245	0x3cb39b1e	0.021924552
246	0x3d815154	0.0631434
247	0xbc1f0321	-0.009705336
248	0x3d9b21d1	0.07574809
249	0xbe027032	-0.12738112
250	0x3d463019	0.048385713
251	0xbd35a9e4	-0.044351473
252	0x3a2a2850	0.00064909924
253	0x3db4d27c	0.08829209
254	0x3e19fffe	0.1503906
255	0xbd3e72ab	-0.046496075
